…
cut off at word info|name|little saint mary's church with frequency = 1, 
OOV rate = 0.00
================= domain = hospital, 
goal vocab size of train set = 50, 
cut off at word info|department|neurosciences with frequency = 1, 
OOV rate = 0.00
================= domain = police, 
goal vocab size of train set = 3, 
cut off at word reqt|address with frequency = 157, 
OOV rate = 0.00
================= domain = taxi, 
goal vocab size of train set = 541, 
cut off at word info|destination|yippee noodle bar with frequency = 1, 
OOV rate = 0.00
Loading corpus finished.
SysPerfectBD2Cat (
  (utt_encoder): RnnUttEncoder(
    (embedding): Embedding(1004, 100)
    (rnn): EncoderRNN(
      (input_dropout): Dropout(p=0.5, inplace=False)
      (rnn): GRU(100, 300, batch_first=True, dropout=0.5, bidirectional=True)
    )
    (key_w): Linear(in_features=600, out_features=300, bias=True)
    (query): Linear(in_features=300, out_features=1, bias=True)
  ), parameters=1004601
  (c2z): Hidden2Discrete(
    (p_h): Linear(in_features=724, out_features=200, bias=True)
  ), parameters=145000
  (z_embedding): Linear(in_features=200, out_features=300, bias=False), parameters=60000
  (gumbel_connector): GumbelConnector(), parameters=0
  (decoder): DecoderRNN(
    (input_dropout): Dropout(p=0.5, inplace=False)
    (rnn): LSTM(100, 300, batch_first=True, dropout=0.5)
    (embedding): Embedding(1004, 100)
    (attention): Attention(
      (linear_out): Linear(in_features=600, out_features=300, bias=True)
      (dec_w): Linear(in_features=300, out_features=300, bias=True)
      (attn_w): Linear(in_features=300, out_features=300, bias=True)
      (query_w): Linear(in_features=300, out_features=1, bias=True)
    )
    (project): Linear(in_features=300, out_features=1004, bias=True)
  ), parameters=1246205
  (nll): NLLEntropy(), parameters=0
  (cat_kl_loss): CatKLLoss(), parameters=0
  (entropy_loss): Entropy(), parameters=0
) Total Parameters=2455806
***** Training Begins at 2020-05-14 13-17-31 *****
***** Epoch 0/50 *****
300/1416-(0.000): Train nll PPL 49.465 pi_kl 1.690 diversity 0.055 b_pr 1.435 mi 0.255
600/1416-(0.000): Train nll PPL 14.749 pi_kl 2.222 diversity 0.037 b_pr 1.564 mi 0.658
…
